drift_uncertainty_net_online_adapted.pt (torch, 21489 bytes, 5 tensors)

net.0.weight f4 [64, 3]
000000 55 a0 a3 be c3 96 2a be 45 1a f1 bd 52 83 99 3e
       -0.3195826 -0.16659074 -0.11772589 0.29983002
000010 bf 2e b9 be ed 98 57 3e 43 57 07 bf 16 02 97 be
       -0.36168477 0.2105443 -0.52867526 -0.2949378
000020 d6 f6 f6 3e 4a 8d a0 be ed a9 dc be 22 a6 a1 be
       0.48235196 -0.31357795 -0.43098393 -0.31572062
000030 56 ef 86 3d cd de 8c bd fd b3 58 3e c3 57 10 3e
       0.065886185 -0.068784334 0.2116241 0.14095978
000040 b3 5f dc be cb f5 ae 3d 0a fe f7 be b1 8a 0e 3e
       -0.43041763 0.08542975 -0.48436004 0.13920094
000050 33 d3 03 bf 62 7b 13 bf e8 88 d2 3e 10 0b bd be
       -0.5149414 -0.5761014 0.41120076 -0.36922503
000060 2c 68 7a be 03 42 2d be d3 5e 92 be dd 74 0a 3f
       -0.24453801 -0.16919713 -0.2858797 0.5408457
000070 a3 45 0f 3e 9c d0 5d 3d 84 f3 99 bd 11 00 8f 3e
       0.13991408 0.054154024 -0.0751715 0.27929738
000080 d2 a7 18 be c7 4a 95 bd b1 a0 03 3f c9 70 29 3a
       -0.14907768 -0.07289653 0.5141707 0.00064636447
000090 bd 2f 2f 3e 49 51 80 3e 5f 52 1a 3e 9f 37 9a 3e
       0.17108054 0.25062016 0.15070485 0.3012056
0000a0 84 21 60 be 77 f6 ae be be 7b ed be 69 1b e3 3e
       -0.21887785 -0.34172413 -0.4638347 0.4435685
0000b0 1e 08 06 bf c9 15 7d 3e 29 8c 05 bf e4 e4 93 be
       -0.52356136 0.24715342 -0.5216699 -0.28885567
0000c0 5a 16 8d be 49 e9 ce 3e 1c 0e ac bb fa 04 0d bf
       -0.27556115 0.40412357 -0.0052507054 -0.5508572
0000d0 a9 dd 0c bf 95 c6 ac 3e fd 5e 24 be bb 71 90 be
       -0.55025727 0.33745256 -0.1605186 -0.2821177
0000e0 1d a9 e1 be 6d eb eb 3e 92 e5 e7 3e 1f 6f 68 be
       -0.44074336 0.46078053 0.45292336 -0.2269864
0000f0 54 d1 d2 3d 9c 65 e0 3e 5b b7 f9 bd 00 ea c1 3e
       0.102938324 0.43827522 -0.121931754 0.3787384
000100 77 0b 3c 3e 44 a6 8e bd 2c ac 57 be 4e 90 08 3f
       0.18363748 -0.069653064 -0.21061772 0.5334519
000110 2a 26 e6 be 3b 32 02 3e 40 a9 28 be 86 8d a4 be
       -0.44950992 0.12714474 -0.16470814 -0.32139224
000120 4f b6 91 3e 39 e9 79 be 5a e7 ae 3e c1 fa c3 3e
       0.28459403 -0.24405374 0.34160882 0.38277248
000130 00 b3 e0 be 82 4f 1e bd 7b 9e 1b be 27 65 c4 3c
       -0.43886566 -0.038650043 -0.15197174 0.023974014
000140 6d 47 33 be bd b2 36 3e f2 8a d8 be a0 ed 90 3d
       -0.17507716 0.1784162 -0.42293507 0.07076573
000150 0b 13 d9 bd 4a d0 0b 3e f9 a8 9a 3e c9 33 be 3d
       -0.10599335 0.13653675 0.3020704 0.09287221
000160 28 f0 ef 3e 98 bc f4 be 9d 9e ee be aa d7 59 3e
       0.46862912 -0.47800136 -0.46605387 0.21273676
000170 c9 25 0d bd 0e 9e 32 be 10 cc 8b be ed 1f 80 be
       -0.034459863 -0.17443106 -0.27304125 -0.25024357
000180 27 01 41 be 51 d1 f2 bd 45 ce 8f bc f9 6c ec 3d
       -0.18848096 -0.1185633 -0.017554412 0.115442224
000190 f0 e1 06 3f 62 3f 02 bd bd 45 b0 3e cf 5d 02 3f
       0.52688503 -0.031798728 0.34428206 0.5092439
0001a0 bb a9 92 3e a6 e0 c9 be 46 cd 08 be ee 52 d6 be
       0.2864512 -0.39429206 -0.13359556 -0.41860145
0001b0 7e b0 40 3e b8 90 95 bd f7 71 dc 3d 62 5f f5 bd
       0.18817326 -0.073029935 0.107639246 -0.119810835
0001c0 06 15 ff be c7 d2 0d 3f 14 c9 b2 be 4d 23 21 be
       -0.49820727 0.55399746 -0.34919035 -0.15736122
0001d0 42 5c 93 be a3 46 d3 3e 21 74 0f 3f 46 bf 0c 3f
       -0.28781325 0.4126483 0.56036574 0.5497936
0001e0 48 90 be be 41 78 04 3f 22 1e dd be 31 73 64 3e
       -0.37219453 0.5174599 -0.43187052 0.22309567
0001f0 17 cc 7d 3e 8e 47 00 bf 24 07 e1 be 92 89 9e be
       0.24784885 -0.50109184 -0.4395076 -0.30964333
000200 72 02 b0 3d fb 85 e2 3d 7d fa b9 be 6c 71 58 3e
       0.085942164 0.11060711 -0.3632392 0.21137017
000210 26 04 4d be 8e f7 86 be 14 19 04 be 81 01 d7 3e
       -0.20021114 -0.26360744 -0.12900192 0.41993335
000220 93 e3 0a bf be 5c 8c bd 05 9f f1 be 1c e5 b8 3b
       -0.542535 -0.06853627 -0.47191635 0.0056425463
000230 39 20 03 3e 16 61 96 3e 72 de 0c 3f 95 23 49 be
       0.1280526 0.29370946 0.55026925 -0.1964248
000240 d4 7a 56 3d 0f 29 fa be 53 b3 be bd f9 f2 5f 3e
       0.05236323 -0.4885945 -0.09311547 0.2187003
000250 e2 ed 5a 3e 5d 3f a2 3b c7 3b 97 be a2 c5 0b bf
       0.21379808 0.004951401 -0.29537794 -0.5459844
000260 fc f7 b6 3d af b1 a9 3e d9 48 87 3e 67 89 f9 3e
       0.08934018 0.33143374 0.26422766 0.48737642
000270 bf 81 ad 3e 4a 2b fc 3d 52 da f4 be 90 8c 6b be
       0.3388805 0.12312944 -0.47822815 -0.23002839
000280 c1 da bc 3e 94 bb 04 bf d8 b3 32 3d 69 0f ab 3e
       0.36885646 -0.5184872 0.043628544 0.33410195
000290 ae 5a a7 be 09 52 16 be 12 cf cc bd 67 fb 9e be
       -0.3268637 -0.14679731 -0.10000433 -0.3105118
0002a0 f5 db 70 bd 6e 23 90 3e 65 bf 17 be dc c4 04 be
       -0.058803517 0.2815203 -0.14819105 -0.12965721
0002b0 57 17 f6 3e 6a 0e 0a 3e dc 03 ea 3e b6 cb d0 be
       0.48064682 0.13482061 0.4570607 -0.4078042
0002c0 2c 5e a4 be ce 2b bc bd 32 ec 09 3b 38 92 f8 bd
       -0.32103097 -0.091880426 0.0021045324 -0.12137264
0002d0 05 5b ca be ea 27 a4 3e ef cf 59 bd 6f 2b ce 3e
       -0.39522567 0.32061702 -0.053176817 0.40267512
0002e0 b9 55 94 be 40 ba e8 be ce a9 2a be bb 77 fd be
       -0.2897165 -0.45454597 -0.16666338 -0.4950541
0002f0 62 34 96 3e 4a 16 cd be 5e 39 90 bc ef 85 e4 3e
       0.2933684 -0.40056068 -0.01760548 0.44633433

net.0.bias f4 [64]
000000 44 7a 0a bf 22 67 46 3e 60 f2 fb be de 54 f6 be
       -0.5409281 0.1937528 -0.49208355 -0.48111624
000010 03 3e 4a 3e ad 98 0f bf 19 a4 5e 3e 8a 08 ba 3e
       0.19750218 -0.5609234 0.21742286 0.3633464
000020 01 3a 99 3e 66 66 8d bc fd cd d2 be 4c 60 2b be
       0.29927066 -0.017260741 -0.41172782 -0.16735953
000030 5d 56 12 bf 0e 05 d1 3d ff 7b 9e 3e d4 13 c7 3e
       -0.5716303 0.10206042 0.30953977 0.38882315
000040 5b 83 94 be 76 1c 35 be cf 82 e1 be 2b fb d8 be
       -0.29006466 -0.17686638 -0.44045112 -0.42379126
000050 8e ab 07 bf ee 51 4f 3e 7c 06 e9 bc 1a 9d 94 3e
       -0.52996147 0.20246097 -0.028445475 0.2902611
000060 43 92 fc bd 80 a4 83 3e b3 fd bd 3e 6a 47 98 be
       -0.12332585 0.2571144 0.3710762 -0.29741985
000070 0a 6a 06 bf 23 b3 0a bf c7 e0 07 bf 6d 4b b3 3e
       -0.5250555 -0.5417959 -0.5307736 0.35018483
000080 f0 08 63 3e 74 e8 a1 3e 69 3a 83 be 56 61 ce bd
       0.22171378 0.3162266 -0.256305 -0.10077159
000090 8f cb 04 bf 90 12 0a 3f 4a 2c 98 3d fb 53 aa be
       -0.51873106 0.53934574 0.074303225 -0.33267197
0000a0 75 c6 37 3e 38 a3 94 be 8e b9 df 3e 18 47 b4 be
       0.17946799 -0.29030776 0.43696254 -0.3521049
0000b0 f2 ee 9e 3d 95 c2 8b 3d 35 95 6d be 74 8a 23 3c
       0.07760419 0.06824223 -0.23201449 0.00998174
0000c0 f0 71 48 3e 53 49 90 3e 55 85 e5 be 39 13 d6 be
       0.19574714 0.28180942 -0.44828287 -0.4181154
0000d0 2e ea cd 3e 01 e2 bd 3e a0 24 96 3e 65 cc 06 3f
       0.40217727 0.3708649 0.29324818 0.5265563
0000e0 5d a5 04 bf 7a 15 c7 3e 30 0b 69 3e 88 c7 89 3e
       -0.51814824 0.38883573 0.22758174 0.26910043
0000f0 bd c7 b0 be b4 e0 3d be 69 0f 48 bd ea fb d5 bb
       -0.34527388 -0.18542749 -0.04884282 -0.0065302746

net.3.weight f4 [64, 64]
000000 c5 d5 50 3d a6 21 94 bd a0 2c 18 3d bc aa ab bd
       0.050985117 -0.072329804 0.037151933 -0.083821744
000010 96 5b 51 bc a5 1a 90 bd 87 98 d2 3d 30 d8 c2 3d
       -0.012778183 -0.07036332 0.102829985 0.09513891
000020 d2 b7 e3 3d 38 95 1f bd 72 92 b3 bc 04 00 8b bc
       0.11119045 -0.038960665 -0.021920417 -0.01696778
000030 c3 96 99 3c fb f1 e4 bd 1c cc a3 3d 73 97 94 bd
       0.018748647 -0.111789666 0.07997915 -0.07255449
000040 75 ae 5b bd bb bc c7 3d 87 24 a7 3d 3f 99 9f 3d
       -0.053633172 0.09752794 0.08161264 0.07792901
000050 df 91 b8 bd d6 97 1f bd 16 72 cd 3d 96 b7 03 3c
       -0.09012198 -0.03896316 0.10031526 0.008039376
000060 9e df 98 bc 6f 12 38 3d 4a 25 99 3d 31 0c e7 3d
       -0.018661316 0.044939455 0.074778154 0.11281622
000070 3f 0e b5 bd 5d 18 d7 bd c0 2f 55 bd 38 57 be bc
       -0.08840608 -0.10502694 -0.05204749 -0.023234949
000080 32 a1 59 3d 24 9f c2 bd 20 73 a8 bc c1 e3 b0 bd
       0.053132243 -0.0950301 -0.020562708 -0.086371906
000090 02 03 83 bd a3 12 91 bd ee 30 da bd 36 cd e7 bd
       -0.06397058 -0.07083633 -0.10653864 -0.11318438
0000a0 1e 76 3c bd b5 ba b0 bc a6 eb 0c bd 2b ae 1a bd
       -0.046011083 -0.021573404 -0.03440442 -0.037763756
0000b0 ce 98 b5 3d d3 df 48 bd e8 ac ea 3d 77 9d ae 3d
       0.08867036 -0.04904158 0.114587605 0.08526128
0000c0 43 39 db 3d 94 eb 65 3d f2 64 0b bc 09 90 e3 bd
       0.10704281 0.056132868 -0.008507954 -0.11111457
0000d0 a6 8d 9d bd 5a d6 a7 bd 14 7b a8 3c 4b a5 69 3d
       -0.07693033 -0.08195181 0.0205665 0.0570424
0000e0 15 cc f7 3d ab 2f 3b bd 10 9a f3 3c e2 06 a8 bd
       0.120994724 -0.045699757 0.029736549 -0.08204438
0000f0 31 73 67 3d f7 ad cd 3d 82 69 f1 bc 66 87 9d 3d
       0.05650634 0.10042947 -0.029469255 0.07691841
000100 4a a5 c2 bd 2c 84 80 3d da f3 0e bd 55 0e c4 3d
       -0.09504183 0.0627521 -0.034900524 0.09573046
000110 4e 27 b0 bd 18 58 1d bb d8 85 96 3a c6 b4 9a bd
       -0.08601247 -0.0024008807 0.001148398 -0.07554011
000120 19 c6 b6 bc 8b 61 65 bd 4d 9c 2f 3c fd 06 d2 3d
       -0.022311257 -0.056001227 0.010718417 0.10255239
000130 32 94 3d 3d 01 cf b0 3d 63 fe bc bc 5a 64 0d 3d
       0.04628391 0.08633233 -0.02307052 0.03451953
000140 62 df 5c bd aa 8a b0 bd 29 50 98 bc 63 a2 0d 3c
       -0.053923972 -0.08620198 -0.01859291 0.008644673
000150 53 4b f7 3d a3 87 b9 bd 01 48 42 3d 9c d7 12 3c
       0.12074914 -0.09059074 0.04743195 0.008962538
000160 82 c5 88 bd 47 6b d1 bd 58 07 ed bd bc 41 ee 3d
       -0.066782966 -0.1022554 -0.11573666 0.116336316
000170 e5 41 76 3d da ca d9 bd cb c7 af 3d ef d3 29 bd
       0.060121436 -0.10634394 0.08583029 -0.04146188
000180 6e b4 d4 3d cc 55 bd 3b 44 13 0b bd 93 83 fb bd
       0.10385977 0.00577805 -0.03395392 -0.12280955
000190 78 ec 2f bd c0 f7 45 3b db aa 74 b9 d9 9a ed 3d
       -0.042950124 0.0030207485 -0.00023333302 0.116018005
0001a0 0b 1f 98 3d 31 26 bd bd 50 0f bc bd fd 83 dd 3c
       0.07427796 -0.092358 -0.09182608 0.027040476
0001b0 bc 64 09 3d 10 eb ab bd d3 05 bf bd b5 f2 9a bd
       0.033543333 -0.08394444 -0.09327283 -0.07565824
0001c0 e4 61 1e bc b0 77 81 bd 5d ed 84 bc e4 a9 ef bc
       -0.009666894 -0.06321657 -0.016226465 -0.029255815
0001d0 3f 40 0c 3d e9 02 43 3d 41 a8 e4 bd 2e 8f 4b 3c
       0.034240957 0.047610197 -0.111649044 0.012424273
0001e0 62 44 c7 bd 06 fc 4e 3d 59 3e f5 3d fc ce 9c 3d
       -0.0972984 0.050533317 0.119747825 0.07656667
0001f0 6e 5a 96 3c c6 ae f5 bc 33 81 6a 3d c8 27 bb bc
       0.018353667 -0.029990565 0.05725212 -0.022846118
000200 b2 f0 0b bd 3d 7f 25 3d b8 89 1e bc 99 d9 ec 3c
       -0.03416509 0.040404547 -0.009676389 0.028912352
000210 b3 eb 4c 3d 85 2e a4 3d ed 52 8b 3c 66 10 96 3d
       0.050029468 0.080166854 0.017007316 0.073273465
000220 94 0f ab bc cd 43 d4 3d bc f7 b9 bd 7d af b1 bd
       -0.020881452 0.103644945 -0.09080455 -0.0867605
000230 da 6a df bd 8a f4 fb bd ea e9 99 bd 19 0c e0 3d
       -0.10909052 -0.123025015 -0.07515319 0.109398074
000240 09 d5 72 3d e8 36 08 bd 85 76 87 3c cf 61 d4 bd
       0.059285197 -0.033255488 0.016536007 -0.10370218
000250 cf ba fa bd b3 fe d8 bd d8 64 3b 3d 74 ec 14 3d
       -0.12242662 -0.10595455 0.04575047 0.03635831
000260 f7 d4 f5 3d e4 83 45 bd bc 1a 9f 3c 10 27 12 bd
       0.120035104 -0.048221484 0.019421928 -0.035681784
000270 40 e3 83 bd 6b 74 bf bd f2 98 8a 3d 16 5d b1 3d
       -0.06439829 -0.09348377 0.06767453 0.08660333
000280 3e 53 df bd 74 f2 52 bc 43 d8 de 3d 70 1b c4 3d
       -0.10904549 -0.012875188 0.108810924 0.09575546
000290 12 01 4c 3d 1d 4c df 3b 37 c6 8d 3d 61 44 e8 3d
       0.04980571 0.0068144933 0.06922572 0.11341167
0002a0 87 2f df bd 64 ac 4a bc 9a ed aa 3c dd d7 c0 3a
       -0.10897737 -0.012370203 0.02086525 0.001471277
0002b0 5a e3 2c bd 55 76 57 3d a7 c8 b1 bd 21 5d 66 bd
       -0.042209007 0.052603085 -0.086808495 -0.05624116
0002c0 22 12 aa 3d c0 56 11 3d d1 93 a3 3d 9c 65 27 3d
       0.0830424 0.035483122 0.07987178 0.040868387
0002d0 0e 35 6d bd 74 2a 5f 3a ce fe 04 bc cd f2 de 3d
       -0.057911925 0.0008513101 -0.008117391 0.10886154
0002e0 78 aa 0f 3d f6 57 97 bd 6f 90 ba bd bf 28 95 3d
       0.03507468 -0.07389824 -0.0910958 0.07283162
0002f0 a4 3d 58 3c d0 1c fa 3d 30 a4 fd 3d 93 40 56 bd
       0.01319829 0.12212527 0.12384832 -0.052307677
000300 99 86 23 3d 78 24 e0 3d 73 35 bd bd 18 6e a7 3d
       0.039923284 0.10944456 -0.0923871 0.081752956
000310 f4 d0 35 3d 54 e3 89 3d 3b 03 a8 bd bc b2 93 bd
       0.044388726 0.067328125 -0.08203741 -0.07211825
000320 30 ae 1e bb e5 43 9a bd 52 8f 88 bd 06 a2 d3 bd
       -0.002421271 -0.07532481 -0.06667961 -0.10333638
000330 f7 88 48 bc f5 45 d8 3c 30 40 ed bd 7b 52 a6 3d
       -0.012239686 0.026400546 -0.115845084 0.08121201
000340 76 1f 34 3d a8 db 5d 3a eb 57 af 3d 1d b2 b9 3c
       0.043975316 0.0008463212 0.08561691 0.022667939
000350 e7 00 84 bd c0 b3 73 3d 89 4b bb bd 4c 9d aa 3d
       -0.064454846 0.059497595 -0.091452666 0.08330783
000360 35 69 f9 bd fc 46 81 bd 74 d3 df bd 2b 2c db 3a
       -0.1217827 -0.06312367 -0.10929003 0.0016721537
000370 e8 74 3d bd 71 8c 13 bd 51 f0 46 bd bc 14 5e bd
       -0.04625407 -0.036022607 -0.048569027 -0.054218993
000380 3b de ea b8 6b 2c 5c 3d b4 97 9c 3d 22 fb bc 3d
       -0.00011199383 0.053753298 0.076461226 0.09227587
000390 63 ff 8b bb d1 8c da 3d 04 7f 9e 3b 72 fa e6 bd
       -0.004272388 0.1067139 0.004836919 -0.112782374
0003a0 9f 5e cd bd 5e ed dc bc 03 12 f0 3d 57 a3 e4 3d
       -0.10027813 -0.026968654 0.117221855 0.11163967
0003b0 af 06 b5 3c e6 5d 5f 3d ca 86 35 3d f4 e2 4c bd
       0.022097914 0.054532908 0.044317998 -0.050021127
0003c0 fc 74 da bd b5 22 4e bd 36 40 ac 3c 94 e9 b4 3d
       -0.10666844 -0.050326068 0.021026712 0.08833614
0003d0 ea 24 e7 3d 81 d7 f4 3c e4 ce bf 3c f5 15 d6 bd
       0.11286338 0.029887917 0.023414083 -0.10453407
0003e0 eb 4b 38 bc e8 7e ce bd 44 cc 8f bd 9a aa b9 bd
       -0.011248569 -0.10082799 -0.070213825 -0.09065743
0003f0 81 42 d3 3d 5d a5 ec bd 86 ec f5 3c c9 d1 a1 3d
       0.10315419 -0.11554978 0.03002001 0.079013415

net.3.bias f4 [64]
000000 1b 0a 8f 3d 19 2e 4c 3d fd f3 b5 bd 81 c9 53 bd
       0.06984349 0.04984865 -0.08884428 -0.05170584
000010 5c e0 c6 3d a0 e6 e1 3d 9d 6f 94 3d b6 5e 96 3d
       0.09710762 0.11030316 0.07247851 0.073422834
000020 15 e7 ba 3d 82 49 4f bd 23 2f b2 3a b0 43 56 bd
       0.09126107 -0.050607212 0.001359437 -0.052310646
000030 0d 2f cd 3b db 51 91 bb 09 2d b3 bd bd 92 f5 bd
       0.0062617124 -0.0044348068 -0.08748824 -0.11990879
000040 0b 06 e6 3d c7 8d cc 3d b1 a6 c9 bd 60 36 a1 bd
       0.11231621 0.099879794 -0.09846247 -0.07871699
000050 be d0 52 3d ff f7 96 3d 27 b0 85 bd 78 be 0b bb
       0.051468603 0.0737152 -0.06527739 -0.0021323245
000060 c0 95 b1 bd de 90 9e bd 36 c4 dc bd 97 66 bb 3d
       -0.08671141 -0.07742475 -0.10779612 0.09150427
000070 56 97 c0 bd 4d 98 e1 bd 22 9c 2f bd f3 6e 91 3b
       -0.09403865 -0.11015377 -0.04287351 0.004438275
000080 44 49 cf bc 77 bb 4a 3d 1d 23 2d bd e7 16 d3 3d
       -0.02530349 0.049495187 -0.042269815 0.10307103
000090 cc 89 a2 3b 87 c5 f7 3d ac 9d 3c bc 3b 31 50 bd
       0.0049602743 0.12098222 -0.011512201 -0.0508282
0000a0 98 37 07 3d 9f 31 8f bd 57 ac c3 bd 5a 1e c0 3d
       0.033012003 -0.06991886 -0.095543556 0.09380789
0000b0 c1 9a d9 bd 97 e1 d6 3d 61 81 e0 bd 98 b3 82 3c
       -0.1062522 0.104922466 -0.10962177 0.015954778
0000c0 06 fc e6 3d e3 93 48 bd f7 80 3b 3d c0 2c 6b 3d
       0.112785384 -0.04896916 0.045777287 0.057415724
0000d0 df 61 e4 3d 7f 87 6c bc cd 54 8b bc 2d a3 e1 3c
       0.1115148 -0.014436602 -0.01700821 0.027543629
0000e0 86 40 97 bd 9a 5f 42 3d 5f 51 44 3d 44 97 9e 3d
       -0.07385354 0.047454454 0.047929164 0.077436954
0000f0 e2 fd 6f bd 5b 76 28 3d 2d 7c 31 bc 51 84 18 3d
       -0.05859173 0.041128498 -0.0108328285 0.03723556

net.6.weight f4 [1, 64]
000000 97 32 72 3d 81 cf 05 3c a7 43 d8 3d 16 7c ac bc
       0.059130277 0.008167149 0.10559779 -0.021055263
000010 cf bd c5 bd 01 86 cc 3d 4b 61 9c bd e0 09 4b bd
       -0.09655344 0.09986497 -0.07635745 -0.049569964
000020 3e 58 07 bc b5 9e ff 3d 61 21 f6 bd bc 13 8e bd
       -0.008260785 0.12481443 -0.12018085 -0.06937358
000030 a5 90 1a bd fe c1 a2 bd b9 06 95 3c 1c 42 c7 3d
       -0.0377356 -0.07947157 0.018191682 0.09729406
000040 18 22 27 3d 0d 95 42 bd 34 59 a6 3c 6a 7c aa bc
       0.040804 -0.047505427 0.020306207 -0.020811278
000050 9c 3a 85 3d 36 7e ac 3c f1 3a 45 3b 3d 59 f7 3d
       0.065053195 0.021056276 0.0030094946 0.12077568
000060 2a 89 6e bd cb e5 b3 bd 0a c4 36 3d c6 80 bd 3d
       -0.05823628 -0.08784064 0.04462055 0.09253077
000070 13 4c cd 3d 0e 4a cb 3d b5 dc a2 3d 70 38 7f 3d
       0.10024276 0.09926234 0.07952253 0.062309682
000080 80 20 9c bd 9a 8e 97 3c 8e 04 c5 3d 05 3c 95 bd
       -0.076233864 0.018500615 0.09620009 -0.072868384
000090 44 e3 8f bd 71 72 69 3d 81 d9 a7 3d f5 d0 4d bd
       -0.07025769 0.056993905 0.081957825 -0.050248105
0000a0 44 f0 c7 3d fe 75 f7 bd d3 70 62 bd 43 c2 ce 3c
       0.09762624 -0.12083052 -0.05528338 0.025239116
0000b0 b4 36 2e 3d bf 04 72 bc 2b 40 21 bd 5a ec e4 bd
       0.042532638 -0.014771639 -0.039367836 -0.11177893
0000c0 b8 4b 57 3c 39 db 72 3c c7 41 70 3d 65 fb 96 bd
       0.013140611 0.014822775 0.05865648 -0.073721685
0000d0 a1 e7 df bc 50 f8 09 3d b4 ed 11 3d 63 73 e6 3b
       -0.027332129 0.033684075 0.035627082 0.007032798
0000e0 80 7e 46 3c c3 0e 75 3d ee e7 95 3c 24 c9 39 bd
       0.012115121 0.05982853 0.01829907 -0.04535784
0000f0 cb fb d9 3c 4e 2c 89 3d 40 c9 ba bd 92 42 8b 3d
       0.026609322 0.066979036 -0.09120417 0.06799807
