drift_uncertainty_net_exp_online_adapted.pt (torch, 21537 bytes, 5 tensors)

net.0.weight f4 [64, 3]
000000 9f d8 f5 3d 27 3b 3c be 7f f9 bb 3e b9 b9 ef be
       0.12004208 -0.1838194 0.36713788 -0.46821383
000010 a0 f9 12 3e 39 24 d2 bd 6f ee bf bd 4b 16 30 3c
       0.14353037 -0.10260815 -0.093716495 0.010747503
000020 33 3b 97 be 17 f4 a7 be 7b 9e d0 be a0 50 0b 3f
       -0.29537353 -0.32803413 -0.4074591 0.544199
000030 61 12 91 3e 34 2e 02 3f 22 18 63 be b9 55 cc 3e
       0.28334334 0.5085175 -0.22177175 0.3990915
000040 ae ff e4 be 0b 02 13 3e 56 31 b9 be 71 03 51 3e
       -0.44726318 0.14356248 -0.36170453 0.20411469
000050 2b a8 84 bd fd df d5 3e 4c 48 01 be 30 42 fd be
       -0.06477388 0.41772452 -0.12625235 -0.4946456
000060 21 1d 11 bf c4 12 49 be 05 1a 87 3e 54 db bb 3e
       -0.5668507 -0.19636065 0.2638704 0.36690772
000070 7f 19 be 3d 26 4f ef bd 44 f0 ae 3e bb 44 b4 3e
       0.09282207 -0.11685018 0.34167683 0.35208687
000080 ae e1 03 bf 3f f3 d2 3e c2 49 84 be 22 fc 95 3e
       -0.51516235 0.41201207 -0.25837523 0.29293925
000090 9c 03 4d bd 9f fc 8b be 7b 8c fa 3e d3 44 6d 3e
       -0.05005227 -0.27341172 0.48935303 0.23170786
0000a0 12 76 3e be 99 57 d3 bc 23 b5 b4 be b1 ba 9c be
       -0.18599728 -0.025798606 -0.35294446 -0.30611184
0000b0 f4 0a df be d7 ac fa be 3c a8 00 3f 51 fc f7 bd
       -0.43563044 -0.4895999 0.50256705 -0.121086724
0000c0 7c c3 ec be 8d 7a 9e 3e 81 20 07 be 5b 4c 00 bf
       -0.46242893 0.30952874 -0.13195993 -0.5011651
0000d0 44 2e ce bd f4 ec 2f 3d 4e f4 c8 be 2f 9c e8 3e
       -0.10067418 0.042950585 -0.3924889 0.4543166
0000e0 c4 46 71 bd 7d a4 5e 3e 62 62 98 be eb ff 05 bb
       -0.058905378 0.21742435 -0.2976256 -0.0020446728
0000f0 44 1b 07 3f 34 34 b4 be 78 64 09 bf 2c c6 dc 3e
       0.5277598 -0.35196078 -0.5366893 0.43119943
000100 ec eb 59 3c 4e 08 a3 be 9e 9f 28 bc 74 a1 d1 be
       0.013300877 -0.31842273 -0.010291962 -0.4094349
000110 45 d9 d9 3e 38 b8 db 3e 96 92 d1 3e 29 06 fd be
       0.42548576 0.42913985 0.4093215 -0.49418762
000120 2e 80 fc be 89 63 de 3e 49 34 9b 3e a8 ec 94 be
       -0.49316543 0.43435314 0.30313328 -0.29086804
000130 f3 32 9d be fb 88 76 be c9 b7 07 3f ac 0f 43 3d
       -0.30702934 -0.24075691 0.5301481 0.047622368
000140 02 23 54 3b 31 a3 ad bd 9d bf 03 3f ff b9 98 3c
       0.00323695 -0.08478392 0.51464254 0.018643377
000150 3a c1 a4 be 4d 9e 77 be 5a 39 b6 be 32 80 9f 3e
       -0.3217867 -0.2418148 -0.3559063 0.31152493
000160 e1 ee fb 3e 90 b4 15 bc 26 e6 08 bc 51 ad 1e 3d
       0.49205688 -0.009137288 -0.008355653 0.038739506
000170 bc f7 12 bf b7 dc 0e bf 08 b7 e3 3d 76 18 b5 3e
       -0.5740926 -0.55805534 0.11118895 0.35370225
000180 ba 9e 62 3e cf bf f4 3e ee 35 c3 be 8c 6d 94 be
       0.22130862 0.47802588 -0.38127083 -0.28989828
000190 5c 70 8b 3e 20 03 2f bd 64 64 b6 be 1c 78 23 3e
       0.2723416 -0.04272759 -0.35623467 0.15963787
0001a0 06 64 74 3c 69 c4 b7 bd 05 66 ed be c6 02 89 be
       0.014916426 -0.08973009 -0.46366897 -0.26759928
0001b0 f9 6e e9 3c ca f5 6c be 28 33 c1 bb cb 5a 8d bd
       0.028495299 -0.23140636 -0.005895991 -0.06902083
0001c0 01 c2 a8 be f8 2b bd be 2a d3 f8 3e cb 65 18 3e
       -0.32960513 -0.36947608 0.48598605 0.14882581
0001d0 d8 6a 11 bf b2 9f 98 3d db 64 33 be 68 a0 81 3e
       -0.56803656 0.074523345 -0.17518942 0.25317693
0001e0 c0 6a ce bb 89 4a 91 3e b4 9f a2 3e cf 5d ac 3e
       -0.0062993467 0.28377178 0.3176247 0.3366532
0001f0 38 61 d6 be cb 32 0d 3f 0e 24 fa bd 8b 1e bc 3e
       -0.41871047 0.5515563 -0.12213908 0.36742052
000200 2e c2 e4 3c bd 3d 0c bf 60 74 9d 3d 80 bc 8f 3d
       0.027924623 -0.54781705 0.076882124 0.070183754
000210 d1 47 ba be 01 7b b8 be 45 26 30 3e 35 34 9a 3d
       -0.36382917 -0.36031345 0.17202099 0.07529489
000220 be 68 83 3e d5 ca c9 be b8 30 33 3d 1c 3c 06 bf
       0.2566585 -0.3941256 0.043747634 -0.5243547
000230 0f 86 30 be 3a 17 f9 3e ac 52 67 3d 72 1a 49 3e
       -0.1723864 0.48650533 0.056475326 0.19638994
000240 1a f9 3e bd fa 53 0c bf b5 2f ff 3e e2 86 e2 bd
       -0.04662428 -0.5481564 0.49841085 -0.11060883
000250 2e 37 e9 be 9b 31 0e 3f ac 99 93 be b6 81 9c be
       -0.4554991 0.5554444 -0.2882818 -0.30567712
000260 fb 42 d3 3e f6 e6 04 3f 72 d6 29 bd ca ad df 3e
       0.4126204 0.5191492 -0.041464277 0.43687278
000270 5a 4f 8f 3e e4 7b 7e be 65 4d fb bb 17 f2 28 3c
       0.27990228 -0.24851948 -0.0076691383 0.010311625
000280 49 36 18 3e 38 15 ed 3e 58 8a 0f 3f 2d 82 6f 3e
       0.14864458 0.4630525 0.5607047 0.23389502
000290 3c 2a 00 bf 80 2d 27 3d 21 70 a4 3e b4 46 ce be
       -0.50064445 0.040814877 0.32116798 -0.40288317
0002a0 e5 19 10 3f 56 61 82 be de 65 48 bd 27 de b5 be
       0.5628951 -0.25464886 -0.048925273 -0.3552105
0002b0 c9 1d ff be 41 f1 92 3c 32 d8 02 bc 97 3d 89 be
       -0.49827412 0.017937304 -0.007986115 -0.26804802
0002c0 90 2d 8a 3e be e4 9c bc 4d db e7 be ba b2 06 3e
       0.26987886 -0.019152042 -0.452845 0.13154116
0002d0 e6 6f e8 be 7a 59 2d be 23 e1 1b 3e 5f 21 0d 3f
       -0.45397872 -0.16928664 0.15222602 0.55129045
0002e0 95 e0 f4 3d 43 a0 88 bd e7 3d b5 3e 24 45 06 3e
       0.11956898 -0.066711925 0.3539879 0.13112313
0002f0 40 f4 d4 3d 79 d4 8c be 59 ac 0e bf a1 7e 0a bf
       0.103981495 -0.27505854 -0.5573173 -0.5409947

net.0.bias f4 [64]
000000 a0 7e a8 be 30 de 7d be de c0 f7 3d 1c 2e af be
       -0.32909107 -0.24791789 0.12097333 -0.34214866
000010 e8 fc 20 be 73 b9 a4 3e 8f 02 c9 3c ba 16 10 3f
       -0.15721476 0.32172737 0.024537353 0.5628468
000020 e9 7f 99 3e 20 bf 52 bd 2a ac 9e be e9 bf e9 be
       0.299804 -0.051451802 -0.30990726 -0.45654228
000030 da 68 0d 3d bd e0 00 bf c6 d5 c0 3e fc ae 80 bd
       0.034523822 -0.50342923 0.37663096 -0.062833756
000040 20 45 fc be 0b b2 b7 be fe a0 b1 3e 07 07 c9 3e
       -0.49271488 -0.35878024 0.3469314 0.39263174
000050 f4 4b eb 3e 63 70 90 bc 10 e8 d9 3e cd e1 a8 3e
       0.45956385 -0.017631715 0.42559862 0.32984772
000060 35 02 9f 3e 35 d0 15 3d d8 ed ef 3e 0a bc 73 be
       0.3105637 0.036575515 0.46861148 -0.238022
000070 52 22 a8 3d 89 c7 2b be 3b 62 f0 3e a3 cc f8 3e
       0.08209671 -0.16775335 0.46949944 0.48593625
000080 fb b4 04 bf c8 22 6f 3e a8 ad 80 be 9f 79 07 3f
       -0.51838654 0.23353112 -0.2513249 0.52919954
000090 72 ef d8 be c3 54 b8 3e 3e cd a6 3d 8f fa 7b 3e
       -0.42370182 0.36002168 0.081446156 0.246073
0000a0 ff a8 44 3e 6d 48 47 bd c3 41 52 3d b9 ae df be
       0.19205092 -0.048653055 0.051332247 -0.4368799
0000b0 4b bd d2 bd 13 99 bc 3e c0 c5 60 3e 18 7d fe 3e
       -0.10290011 0.36835536 0.21950436 0.49704814
0000c0 14 2b f0 be 5b d5 ac be 06 53 55 3e fe e9 ca be
       -0.46907866 -0.33756527 0.20832452 -0.39631647
0000d0 57 5c ac 3e 4f 2f b9 3e de c0 dd 3e 54 36 b2 3c
       0.336642 0.36168906 0.43311208 0.021754421
0000e0 50 2e a5 be 0a cf 06 bf f6 99 1d 3e 2d 4a 98 3d
       -0.32261896 -0.52659667 0.15390763 0.07436023
0000f0 77 6c 28 3e 9c f5 df be ef 20 a8 3d e6 4a a4 3b
       0.16447626 -0.43742073 0.082094066 0.0050138114

net.3.weight f4 [64, 64]
000000 a5 78 fa bd ec 25 95 3d df 76 fd 3d 6b 5c 9d bd
       -0.12230042 0.07282624 0.123761885 -0.07683643
000010 58 23 10 bd 37 75 5c bd 62 50 53 3c fb c4 c7 3d
       -0.035189956 -0.053822722 0.012897583 0.09754368
000020 ad 40 cd bd f4 82 91 bd 0d b6 36 bd 13 73 26 3d
       -0.100221016 -0.071050555 -0.04460721 0.040637087
000030 36 34 e0 bd 51 b2 9c bd 9c 8e c8 3d 1d f5 90 bd
       -0.109474584 -0.07651199 0.097928256 -0.07078002
000040 d6 f4 cd bd 01 1b 42 3d f4 0c 82 bd d5 a0 a0 bd
       -0.100564644 0.047389034 -0.06350127 -0.07843176
000050 5c e3 87 bd 4f aa 6e bd 11 b0 38 3d 79 3b 95 bd
       -0.06635162 -0.058267888 0.045089785 -0.07286734
000060 44 c5 f0 3d f6 8c 6d bd ef dc 8d bc 8a b6 d1 bd
       0.117563754 -0.05799576 -0.017317263 -0.10239895
000070 48 20 e5 bd 2a d5 ad 3d 40 66 32 bd 52 5b 0c bd
       -0.11187798 0.084879234 -0.043554544 -0.034266777
000080 b7 1a 4e bd 29 e2 72 bd 69 d4 82 bd 6e c3 8b bd
       -0.050318446 -0.059297714 -0.0638817 -0.06824385
000090 ff ea 1a 3d d4 58 fb bc 34 12 c8 3d a3 84 03 3d
       0.037821766 -0.030682005 0.09769097 0.032108914
0000a0 4e 11 83 3c 1b 82 df bd 66 b8 a4 bd 46 d4 96 3d
       0.015999462 -0.109134875 -0.08042984 0.07364707
0000b0 75 2c c8 bd f1 08 5a 3d 8e 41 97 3d c5 43 d4 bd
       -0.097741045 0.053231183 0.073855504 -0.103644885
0000c0 fe ff ae bd 6c ba 5d 3d 55 f9 6c 3d 4c df 94 bd
       -0.085449204 0.054132864 0.05785497 -0.07269153
0000d0 39 7b 09 bd 3d c5 5d bd 3a ca ca bd e2 58 91 3d
       -0.03356478 -0.05414318 -0.09901853 0.07097031
0000e0 36 d1 84 3c bd a2 c1 bd 9a bf 77 bd 9a e6 ed bd
       0.01621304 -0.09454868 -0.06048546 -0.116162494
0000f0 8a 4e 84 3d f0 c9 e0 3d 11 61 d7 bd 82 52 ee 3d
       0.06460293 0.109760165 -0.10516561 0.11636831
000100 89 b8 2b 3c 42 66 3f 3d 4f d9 4f 3d c5 5f 25 bd
       0.010481008 0.04672838 0.05074435 -0.040374536
000110 3c 56 c0 3d 0a cd 85 3c 54 c8 c9 bd af 92 7d bd
       0.09391448 0.016333122 -0.09852663 -0.061907467
000120 74 b0 0e bc cf 32 6c bc 2c ac 8a 3d 37 ac e4 3d
       -0.008709062 -0.014416411 0.067711204 0.1116566
000130 8e 13 a3 bd 43 1d ac bd 32 68 80 3d 89 7f e7 3d
       -0.07962714 -0.08404019 0.06269874 0.11303622
000140 d0 93 85 bd 07 ac 5c bc b1 fd 8c 3c ed aa ae bd
       -0.065223336 -0.013468749 0.017210813 -0.08528695
000150 b5 f7 bf bd 77 15 cb 3d 7a 7f a4 3d 5f f1 1b 3d
       -0.09373418 0.099162035 0.08032127 0.038071986
000160 36 84 ac bd 8e 37 bb bd 0b f5 81 3d 93 c8 4c bd
       -0.08423655 -0.091414556 0.06345566 -0.04999597
000170 9b e3 d7 3d 3e de a4 3d 01 0f d1 3c 91 dd dc bd
       0.10541459 0.08050202 0.02551985 -0.10784448
000180 0f 42 2c bd 04 cf cd 3c 74 7f d3 3c 75 55 97 bd
       -0.042055186 0.025123127 0.02581761 -0.073893465
000190 9c 4b 90 bb f8 8c 8c bd a0 82 27 3d 73 39 d9 bd
       -0.0044035446 -0.06862825 0.040896058 -0.10606661
0001a0 a1 88 d1 bd ff 4a a5 3d 58 1e 26 3d 47 a1 a9 bd
       -0.10231138 0.08070945 0.04055628 -0.08282714
0001b0 98 f0 69 3d f4 d2 a4 bc 1e 8f 41 bd 8e 8d cd bc
       0.057114214 -0.020120122 -0.047255628 -0.025091913
0001c0 94 ee b0 bc 53 d3 0b bd 86 06 80 3d 52 b9 a2 bb
       -0.021598138 -0.03413708 0.06251244 -0.0049659396
0001d0 79 c8 43 3c c2 f3 97 bd b4 df dc 3d df 03 b0 3c
       0.011949652 -0.0741954 0.107848555 0.02148622
0001e0 37 e5 26 bd 0c 3d 56 bd 22 dd e5 3d 43 54 b1 bc
       -0.04074594 -0.052304313 0.11223818 -0.021646624
0001f0 a1 f3 dc bd 88 f3 9f 3d 0a 02 89 bd 7a 9a f2 bd
       -0.10788656 0.07810122 -0.06689842 -0.1184587
000200 6b 69 e6 3c 3e 24 6d 3d 64 b5 5d 3d ee 75 e7 bb
       0.02812644 0.05789589 0.054128066 -0.007063619
000210 d8 ee aa 3d 61 1c 2b bd 55 f7 d5 3d 30 27 f4 bd
       0.08346337 -0.04177511 0.104475655 -0.11921537
000220 8b a8 ad 3c 27 b7 f3 3d 6e 30 a0 bd 02 80 46 3a
       0.021198532 0.11900168 -0.07821737 0.0007572175
000230 c6 9c ef bd ff eb 72 3c 39 f3 48 3c 57 38 e5 bd
       -0.11699824 0.014826774 0.01226502 -0.111923866
000240 8a b8 cb bd e2 04 e0 bd 0f bd 30 3d d0 2e e1 bd
       -0.099473074 -0.10938431 0.04314905 -0.10995257
000250 65 45 52 3d b6 3e cd 3d d2 23 62 3c 03 59 f7 3d
       0.05133571 0.10021727 0.013802486 0.120775245
000260 32 7a 44 3d b1 55 b5 3d 0d d6 f2 3c 3b 68 9c 3c
       0.047968097 0.08854235 0.029643083 0.01909267
000270 1b a2 98 3d e3 47 b5 3d 0d c5 6a bd 94 0e 00 bd
       0.07452794 0.08851602 -0.05731683 -0.031263903
000280 e4 83 a2 3d 6a f7 41 3d 0a e4 19 bd ae 30 f3 bd
       0.079353124 0.047355093 -0.03757099 -0.11874519
000290 9f 04 d3 bd 29 a8 18 3d 19 6d 99 bd 9f 30 57 3d
       -0.10303616 0.037269745 -0.07491512 0.052536603
0002a0 f3 00 ab 3d c4 ae 4f bc e3 cb 9e bd 6b 36 d8 3d
       0.083497904 -0.012675945 -0.07753732 0.105572544
0002b0 99 e8 ab bd de bc f4 3c dc f7 d3 bd 09 31 b7 bd
       -0.08393974 0.029875215 -0.1035001 -0.089448996
0002c0 53 7a 35 bd bb e6 80 3d 87 2a c0 bd 00 d3 98 3d
       -0.04430611 0.06294008 -0.093831114 0.0746212
0002d0 2a 3f 80 3d 17 11 e8 3d 3f 12 86 3d ba 10 e2 bd
       0.062620476 0.11331385 0.06546449 -0.110383466
0002e0 35 7e 97 3d dc ff 94 bc 11 6c 4a bd 69 dd f1 bd
       0.07397119 -0.01818841 -0.049419466 -0.11809809
0002f0 89 49 db 3d 0e 51 86 bc 46 6c c0 bd 73 fc f2 3d
       0.10707385 -0.016396072 -0.093956515 0.11864557
000300 82 95 ce bc dc e5 d2 bd 7c 69 fc 3c b8 00 eb 3d
       -0.025217775 -0.102977484 0.030812018 0.114747465
000310 9f a5 22 3d b4 57 7d 3d 7a 70 73 bd 2d b8 53 3d
       0.03970873 0.06185122 -0.059433438 0.051689316
000320 a4 72 af bd ba c2 9d 3d c1 5e 90 bd 01 02 5c bd
       -0.08566788 0.07703157 -0.07049323 -0.05371285
000330 ac 87 8f 3d 62 8a 11 bd 03 ae 38 bb be c0 fa 3b
       0.07008299 -0.035532363 -0.002817989 0.007652371
000340 69 f6 47 3d 96 31 93 bd 83 eb 5b bd 06 e3 93 3d
       0.04881898 -0.07187192 -0.0536914 0.07221036
000350 d0 4f e1 3d 59 b8 a1 bd d3 8a ca 3d 5f ef eb 3c
       0.11001551 -0.0789649 0.0988976 0.028800664
000360 56 bf 9c 3d 27 2f 4a bd 00 3b 4c bd c2 2d fc 3d
       0.07653682 -0.049361374 -0.049860954 0.12313415
000370 cd b9 cd 3d 12 8d 13 3c e5 84 94 bc bc c9 85 bd
       0.10045204 0.009005802 -0.018129775 -0.065326184
000380 56 50 d3 bc af c7 67 3b f6 5c c9 3b 18 81 72 bd
       -0.025795143 0.0035366823 0.006145115 -0.059205145
000390 d2 01 96 bd 9f fa a9 bd 72 1e 4c 3c 72 93 c7 bd
       -0.07324566 -0.08299755 0.012458431 -0.0974492
0003a0 a0 d9 c9 3c 78 a6 be bd d8 5d c8 bd f4 51 33 3d
       0.024639904 -0.09309095 -0.09783524 0.04377933
0003b0 64 d0 b9 3c 48 b5 ad 3d 46 96 a5 3d 39 d3 1c bb
       0.022682376 0.08481842 0.08085303 -0.002392961
0003c0 93 e9 e9 3c e1 bb 40 bd d8 2a 1a bd 8b 80 c2 3d
       0.02855376 -0.047054175 -0.037638515 0.09497174
0003d0 9c 5c be bd 3e c1 fc 3d de 52 82 3d 9c eb d6 bd
       -0.092950076 0.123415455 0.06363462 -0.10494158
0003e0 93 93 b4 bd d9 3c 02 3d 3d 92 a1 bd a5 75 c8 3d
       -0.0881721 0.03179631 -0.07889221 0.09788064
0003f0 e9 f6 ad bc ea f1 b4 3d 3a 04 f7 bc a5 86 6c 3d
       -0.0212359 0.08835204 -0.030153383 0.057745595

net.3.bias f4 [64]
000000 52 84 ef 3d ab 67 7f 3d a7 5b 8c 3c ee de fe 3d
       0.1169516 0.062354725 0.017133547 0.12444864
000010 6f 5e 29 bd ca 66 cf 3d 8d f0 c7 bd f3 91 6c bd
       -0.041349825 0.10127027 -0.09762678 -0.057756376
000020 6b 72 94 3d 56 58 5c bc 5f 23 d9 3d 28 7e 8f 3d
       0.07248386 -0.013448795 0.106024496 0.07006484
000030 7c cf ac bd 5c 86 b7 bc 4a 98 d9 bd 18 26 f9 bb
       -0.08438012 -0.022402935 -0.1062475 -0.007603418
000040 21 03 b8 3d 2a 73 6a 3c 56 b6 b0 3c e5 ba 4a bd
       0.08984972 0.014309684 0.02157132 -0.049494643
000050 a1 ca bb 3d 75 ad 14 3d 45 60 ba bd 99 c7 b2 bc
       0.09169508 0.036298234 -0.09100393 -0.021823691
000060 50 c7 21 3d 40 47 f0 bd 2b bf ed 3d dc e2 a0 3d
       0.03949672 -0.1173234 0.11608728 0.0785577
000070 fd fc dd 3c 75 73 86 bd 07 33 c6 bc d2 b3 f8 3d
       0.027098173 -0.065649904 -0.024194254 0.12143673
000080 1e 05 d1 bd ee 67 86 3d 93 36 87 bd a4 f6 f9 3c
       -0.10206054 0.06562792 -0.06602206 0.030513115
000090 01 aa ba 3d 4c a0 46 bd 02 02 b9 3d 51 80 0c bd
       0.09114457 -0.048492715 0.09033586 -0.03430206
0000a0 7a f5 ac bd 64 67 8b bd dd e2 5a 3d 88 8d 3e bd
       -0.084452584 -0.068068296 0.05343901 -0.046521693
0000b0 be 45 76 3d 43 6f 5a bd e1 7b c4 3d 6f 6e 59 3d
       0.060125105 -0.053328764 0.095939405 0.053083833
0000c0 da b1 90 bd 5c 6d 9a 3d d2 70 17 3d d8 82 38 bd
       -0.070651725 0.0754039 0.03697283 -0.045046657
0000d0 9b 85 49 3d 32 41 fa 3d 9c 29 cd bd e6 87 a9 bd
       0.04919968 0.12219466 -0.10017702 -0.08277874
0000e0 68 96 e2 bc c1 d2 c7 3c e8 f2 a2 3d 1a 61 38 ba
       -0.02765961 0.024392487 0.07956487 -0.0007033512
0000f0 32 b5 d3 bd 84 fd 05 3c d4 3e b2 bd 23 51 c7 bd
       -0.10337295 0.008178119 -0.0870339 -0.097322725

net.6.weight f4 [1, 64]
000000 af 8a bf 3d d0 19 c6 bd 52 15 81 bd c0 a0 f2 3d
       0.09352624 -0.09672892 -0.06302895 0.11847067
000010 0c 27 c1 bb d6 da ef bd ee 24 88 3d ad b5 db 3d
       -0.0058945473 -0.117116615 0.06647669 0.10728011
000020 52 ed 7b 3d 31 aa cb 3d 97 a4 6c 3d f9 66 81 bd
       0.061505623 0.09944571 0.057774153 -0.063184686
000030 50 59 80 bc 16 44 01 bb 38 33 3d 3d 3c 52 f3 bd
       -0.015667588 -0.001972442 0.046191424 -0.11880919
000040 c4 47 b4 3d 49 8b ad bd af b6 13 3c 29 4f cf 3d
       0.08802751 -0.08473832 0.009015723 0.101225205
000050 db 33 81 ba d7 af e9 bd 13 4f 10 bd 83 d7 61 bb
       -0.0009857373 -0.11410492 -0.03523166 -0.003446073
000060 f3 45 eb bc 33 9d ed bd 19 10 6d 3d ed 72 f6 bd
       -0.028719878 -0.11602249 0.05787668 -0.12033639
000070 88 ec da 3d 7c 8a e5 bd d9 e0 ac 3d c4 8e cb 3d
       0.10689646 -0.112080544 0.08441324 0.0993934
000080 1b 1a b1 bd 6c 5a f0 3d 89 84 26 3d fd c4 14 3c
       -0.08647557 0.117359966 0.04065374 0.009080169
000090 de 3d 94 3d 5d 04 9e 3d 22 11 e7 bc 58 5c fe bc
       0.07238363 0.07715676 -0.028206412 -0.031049892
0000a0 c8 7d 98 3d b0 29 cc bc 4a e4 8c bd 26 a2 ce 3d
       0.07445866 -0.024922222 -0.0687948 0.10089521
0000b0 f2 79 77 3d 8b c3 ca bd 20 6f 08 3c 8e 6b 9c 3d
       0.06041903 -0.09900578 0.0083272755 0.07637702
0000c0 52 a8 7d 3d 31 db df bc 40 ce 83 bd 34 bc 00 3e
       0.0619281 -0.027326198 -0.064358234 0.12571794
0000d0 7b f3 89 3d 83 d4 c3 3c eb 10 8e bd eb d7 c4 3d
       0.06735893 0.023905044 -0.069368206 0.096114956
0000e0 39 77 36 bb 25 73 b0 3d 1b f1 67 bd 13 21 ac 3d
       -0.0027842058 0.08615712 -0.05662642 0.08404746
0000f0 08 67 8b 3d 72 91 82 3d cc fc 5c 3d 78 a1 0f bd
       0.06806761 0.06375398 0.053952023 -0.035066098
